models/trained_model.pth (torch, 953211 bytes, 14 tensors)

conv.0.weight f4 [4, 1, 3, 3]
000000 6b bf dd 3d f8 4c 8d 3e 84 e8 99 3e 07 03 5d bc
       0.10827526 0.27597785 0.30060208 -0.013489491
000010 8f d9 74 3d 05 47 d8 3d a8 1f 8a 3e 33 0b a2 3d
       0.059777793 0.10560421 0.26977277 0.07912292
000020 53 8a 6a 3e ff 0b a3 be c9 b6 54 bd d6 c6 fa 3d
       0.22904329 -0.3184509 -0.05193213 0.12244956
000030 f6 55 36 3e 7a ae 92 3e 73 27 e2 3e 70 a6 ea 3d
       0.17806229 0.2864874 0.44170722 0.11457527
000040 e3 d8 37 3e cf 91 1f 3e 46 24 b1 3e 4f 4d 69 3e
       0.1795383 0.15582965 0.34597987 0.22783397
000050 24 3a f8 bc 26 ae 07 3e 8c 35 2f 3c 06 dd a8 3e
       -0.030301161 0.13250026 0.010693919 0.32981128
000060 5b f7 87 be 68 7a 54 3e 03 f7 0e 3e ec 11 5f 3e
       -0.26555905 0.2074982 0.13961415 0.2178418
000070 78 36 78 be ef 37 32 bf 9e aa 30 3e 28 3d e4 3e
       -0.24239528 -0.696166 0.17252585 0.4457791
000080 c8 6f 32 3e f2 5b 69 bd 67 7f c4 3e 35 21 f3 3d
       0.17425454 -0.05697245 0.3837845 0.11871568

conv.0.bias f4 [4]
000000 1e e6 80 bd 6b e8 90 3b a4 a8 2a bb 5b ad 23 bc
       -0.06293891 0.0044222376 -0.002604046 -0.009990062

conv.4.weight f4 [8, 4, 3, 3]
000000 b6 81 33 be dd 48 4c bd a6 55 b9 3c 23 db 9c 3d
       -0.1752995 -0.049874175 0.022623848 0.076589845
000010 0b fc fb 3d c0 08 c4 3d 7f bc c6 bd f8 55 91 3d
       0.12303933 0.095719814 -0.097039215 0.07096475
000020 5a f6 6f bc 61 bb 4b be d4 dc 8c bd 22 6f 3e 3e
       -0.014646137 -0.19895698 -0.06878057 0.18597081
000030 09 bc c2 bb 68 37 06 3e 16 9d f4 bd 85 ac f4 bd
       -0.0059428257 0.13107073 -0.11944024 -0.11946968
000040 85 21 81 bd fc 55 35 be e1 dc ae 3c 17 33 bc 3d
       -0.063052215 -0.17708582 0.021345558 0.09189432
000050 90 26 50 bd 07 cc 06 3e 8d a3 99 3e 30 51 61 3e
       -0.050818026 0.13163768 0.30007592 0.22003627
000060 89 1d 2a be 36 a4 24 be ad 85 98 3c cb 9a 4c 3e
       -0.1661283 -0.16078267 0.01861843 0.19980924
000070 8c c5 60 3e 1e ed f5 3d 65 8c 8a 3d 6e 6d 62 3e
       0.21950358 0.12008117 0.067650594 0.22112057
000080 b3 98 b0 bc de 99 d1 be e2 4a 41 be 12 6d a3 3e
       -0.021557188 -0.40937704 -0.18876222 0.31919152
000090 8c 30 07 3e d1 d5 02 3e fd 4f 0e 3e b8 36 87 3e
       0.13202113 0.12776877 0.138977 0.26408935
0000a0 9d d7 38 3e c1 21 af bd 29 da 96 bd ef 30 38 be
       0.18051 -0.0855136 -0.073658295 -0.17987417
0000b0 ee f8 46 be a7 bc 67 3c a5 5d 1d 3e c8 ee 13 3e
       -0.19430897 0.014144099 0.15367754 0.14446557
0000c0 32 31 62 3e 4c ad e6 bd 3d 45 6d be e4 30 f3 bc
       0.22089079 -0.112635225 -0.23170944 -0.029686399
0000d0 7f 85 8d be c3 66 a7 3c fb 15 cf 3d d9 37 ae 3d
       -0.27640912 0.020434743 0.10111614 0.08506746
0000e0 b9 ab b1 bc 56 9f 69 3d ea 7a cb 3c eb 3e d0 bd
       -0.021688329 0.05703672 0.024838883 -0.10168251
0000f0 70 9e 10 be d1 e7 ab bd 40 8a 06 b7 68 06 e3 3d
       -0.14122939 -0.08393825 -8.019211e-06 0.11085206
000100 55 9e c2 bc 04 bd f0 3d 53 c7 56 be bb 84 23 bd
       -0.02375714 0.11754802 -0.20974474 -0.039921504
000110 47 01 58 be df e6 be be d0 78 6b 3d 37 e4 40 3e
       -0.21094237 -0.37285516 0.057488263 0.18837057
000120 79 a7 2a 3e f5 6d 94 be b6 0f a9 3d 5f f4 eb bd
       0.16665448 -0.2899014 0.0825495 -0.115212195
000130 19 c4 9e bd 9c 97 96 3d ef 46 d0 3d a7 86 10 3e
       -0.077522464 0.07353136 0.101697795 0.14113866
000140 ec 73 ac 3e 96 47 95 be 37 73 00 bf 48 82 ec bd
       0.3368219 -0.29156178 -0.50175804 -0.11548287
000150 8c ce 0c be 69 48 d6 bd 6f a5 b7 ba f4 da ef 3d
       -0.13750666 -0.1046303 -0.0014011095 0.11711684
000160 37 5f 88 3e ff 08 5a 3e fc 7c 06 3e a0 ad 83 bd
       0.26635143 0.21292494 0.13133615 -0.06429601
000170 16 60 f0 3d f8 1f 50 3d 8b 48 4c be 0b 3f c3 bd
       0.11737077 0.050811738 -0.19949548 -0.09533509
000180 27 ce 27 3e 9c 0f 18 3e c4 1f 4b 3d f7 77 eb bd
       0.16387235 0.14849705 0.04959084 -0.11497491
000190 a1 05 28 bf 3f 90 d1 be bb f3 6a bd e6 b3 69 3d
       -0.6563359 -0.40930364 -0.057361346 0.05705633
0001a0 df 5c e7 3c 55 89 9c 3d c9 73 82 3d 78 86 37 bd
       0.028242527 0.076433815 0.063697405 -0.044805974
0001b0 e2 61 b8 39 d2 5e db be 57 58 1c be 1a c1 9c 3d
       0.00035168143 -0.4284578 -0.15268074 0.07654019
0001c0 6f 27 cd 3d fd 2f 2b 3e 0e e1 0c 3e db 67 21 3e
       0.10017287 0.16717525 0.13757727 0.15762274
0001d0 f0 b8 ea 3d c2 00 2d be 74 6e 22 be 88 62 01 bd
       0.11461055 -0.1689482 -0.15862447 -0.031588107
0001e0 30 83 29 3d 55 bc ca bc 87 0f 9c 3e 20 ac c9 bd
       0.041384876 -0.024748007 0.30480596 -0.09847283
0001f0 55 e2 8c 3d ba b1 62 bd b5 7f 9e bd 30 6e f2 bd
       0.06879107 -0.055345275 -0.07739202 -0.11837423
000200 38 60 9a be 1e d4 35 3c 27 e5 bd 3d 31 80 b6 bd
       -0.30151534 0.011097936 0.09272223 -0.08911169
000210 db 32 81 3e 54 31 03 3e 06 08 92 3e ec 24 a3 3b
       0.25234112 0.12811786 0.28521746 0.0049787667
000220 4f b5 1f bd f7 3b 35 be e8 6b 79 3e d4 b2 1f 3e
       -0.03899127 -0.17698656 0.24357569 0.15595561
000230 46 f4 fd bd 9d a1 1a 3e 14 b8 9c bc c6 d6 18 3b
       -0.12400107 0.15100713 -0.019130744 0.0023321374
000240 fb da 27 3e 61 0e 5f 3d eb 95 9e 3b 74 a3 81 3e
       0.16392128 0.054457072 0.004839649 0.25320017
000250 5d f7 8e bd cd 18 c0 bd 00 05 82 3d cd cb f0 bd
       -0.069807746 -0.093797304 0.0634861 -0.11757622
000260 8f 9a b4 bd 2b 6a d4 3d b9 5a 3f be 63 4d c0 bd
       -0.08818542 0.103718124 -0.18686952 -0.0938976
000270 94 7b 3d 3e b5 3e a3 bd d8 b1 30 be e5 16 21 3d
       0.18504173 -0.07970945 -0.17255342 0.039328475
000280 fa d3 34 3d 15 e9 c3 bd 6d 03 06 3e 2b a2 7d bd
       0.04414747 -0.09565941 0.13087244 -0.061922234
000290 85 e0 74 be 52 e3 a4 3e 4a f7 48 bb df 0a 7f bc
       -0.23913772 0.32204682 -0.0030664974 -0.015566557
0002a0 94 d7 00 3e 7b bc ab 3e 7f 54 66 3b b5 c9 7f bd
       0.12582237 0.33542237 0.0035145578 -0.062448222
0002b0 08 91 00 be 41 d3 34 be 1e 37 05 3d 55 a5 a8 3e
       -0.12555325 -0.17658712 0.032523267 0.32938638
0002c0 d5 d1 8d be 5f a7 15 be 12 87 67 3e 41 36 8b 3d
       -0.27699152 -0.14614628 0.22610119 0.067974575
0002d0 5a 12 78 be d4 b5 1c be ca 2f f7 3a 8e 5b 86 bd
       -0.2422575 -0.15303737 0.0018858847 -0.065604314
0002e0 7f f6 56 3e 54 94 b2 3e b4 91 00 3e 0e 6b 34 3d
       0.20992468 0.3487879 0.12555581 0.044047408
0002f0 6e b8 d3 3d 17 c2 10 bf ab f8 9e be 17 99 cb 3d
       0.103379115 -0.5654616 -0.31049094 0.09941309
000300 11 23 9f 3c 9b d2 1e 3e dd ee 6b 3e 27 2f 9b 3d
       0.0194259 0.15510027 0.23040338 0.07577353
000310 88 a4 36 3e 8d a5 62 be 6d 4a e0 bd 9f 34 9b be
       0.17836201 -0.22133465 -0.109516956 -0.30313584
000320 9f ce 9d 3b ab 3c 52 3d 21 df 6c 3d 47 3d 81 bc
       0.004815891 0.05132739 0.05782998 -0.01577629
000330 99 6e ee 3d 04 eb 3a 3e 02 59 5a 3e ad 84 f4 bd
       0.116421886 0.18253714 0.21323016 -0.119393684
000340 02 63 e7 be 1c 40 6e be 76 33 7a 3e 28 3f ac 3c
       -0.45192724 -0.23266643 0.24433693 0.021026209
000350 8f 8d 05 3c 48 4b d0 3b 81 0d 15 be e8 f6 0e be
       0.008151426 0.0063566305 -0.14555933 -0.13961375
000360 b8 74 01 be d3 ee 46 3e 4c e3 6f 3d 9c 4d 43 3e
       -0.12642181 0.19427042 0.058566377 0.19072574
000370 a6 a7 33 3e e8 eb 87 3d 7a ad 57 be 72 34 0e bc
       0.17544422 0.066367924 -0.2106227 -0.008679496
000380 06 1b 37 be 6b 83 a3 bc 72 a3 11 3e 93 81 89 bd
       -0.17881402 -0.019960126 0.14222506 -0.067141674
000390 86 9f 4d 3e 97 c6 bd bc 65 c0 88 be 75 3f 5f be
       0.20080385 -0.023165984 -0.26709285 -0.2180155
0003a0 5f fd 9d bd f4 54 d2 bd 0f 16 05 3e 7e 51 8a 3d
       -0.07714342 -0.1027011 0.12996696 0.06753825
0003b0 ee 36 66 be ef 65 31 3e 33 6b 3c 3e 98 b3 9d 3e
       -0.22481892 0.17324041 0.18400268 0.30801082
0003c0 0f c2 96 3c 67 fd ea bc 38 f5 c0 bd c5 85 d5 3c
       0.018403081 -0.028685285 -0.09421772 0.026064763
0003d0 17 a6 0e 3e f4 47 95 bc 1c b0 b6 3d 1a 86 38 3e
       0.13930546 -0.018222786 0.08920309 0.18019906
0003e0 0f fe 64 3e c5 3e fa be cd 08 01 bb 34 4c 36 3e
       0.2236254 -0.48876014 -0.0019689084 0.17802507
0003f0 1c ac 1f be f3 50 2c 3e e7 00 cb 3d 63 f8 12 be
       -0.15592998 0.16827755 0.099122815 -0.14352565

conv.4.bias f4 [8]
000000 84 06 d6 bb f1 a6 92 3c 65 53 d1 3d 12 6c 78 3d
       -0.0065315384 0.01790187 0.10220984 0.06064994
000010 a5 51 c7 bd 47 30 90 3d 4d bf 13 3c 31 d9 27 be
       -0.09732369 0.07040458 0.009017778 -0.16391446

conv.7.weight f4 [8, 8, 3, 3]
000000 8b 93 26 be a1 cc 00 be 08 c8 9c bd a5 5f 38 3e
       -0.1626722 -0.1257806 -0.076553404 0.18005235
000010 9f cd 08 3e 30 8a ec 3d d0 68 a6 3d 17 a9 e4 3b
       0.13359688 0.11549795 0.0812546 0.006978165
000020 d6 8e 0c bd 1d 6a e8 bd 1e 28 3a be f3 e0 23 be
       -0.034315906 -0.113483645 -0.18179366 -0.1600378
000030 68 94 f8 3d e4 d3 65 3d 2c 17 c5 3c 0b d1 df 3d
       0.12137681 0.056110278 0.0240589 0.10928544
000040 19 c5 e7 3d b4 16 a8 bc 45 7e 40 3d c2 bd 8d 3d
       0.1131689 -0.020518638 0.04699542 0.06920959
000050 0e ed 96 3e e2 4a 78 be 1c 94 94 be ba 6a e4 bd
       0.29477733 -0.24247316 -0.29019248 -0.11153169
000060 c1 f7 9c be a7 22 f7 be 84 d9 89 be 95 86 67 3d
       -0.3065777 -0.48268625 -0.26923764 0.05652483
000070 b5 0f e9 3d f9 20 75 3d fe ea 06 3c 39 68 3c 3b
       0.11379949 0.0598459 0.008234737 0.0028748645
000080 8c ba f0 3d 1e 52 db be b3 19 4a bf 59 f9 fa be
       0.11754331 -0.42836088 -0.78945464 -0.49018362
000090 2c b8 8d 3d 64 40 89 3c 09 6d b5 bc 8a 00 46 3d
       0.069198936 0.016754337 -0.022146719 0.048340358
0000a0 17 d5 61 bd 9c 3a 0a 3c 54 d8 3f bd f8 45 7b be
       -0.05513486 0.008436825 -0.046837166 -0.2453841
0000b0 93 8f 7b be 67 75 d4 3c b5 5e 8e 3b 60 83 14 3e
       -0.24566488 0.025934888 0.004344786 0.1450324
0000c0 51 bd 90 bc 3d 03 53 3d 7b 00 dc 3d a0 7a 4d be
       -0.017668398 0.05151676 0.10742279 -0.20066309
0000d0 49 93 da be 91 9d 10 bf 47 57 1c bd 93 95 21 be
       -0.42690495 -0.5649043 -0.03816917 -0.15779714
0000e0 8b 05 af bd 27 8d 8a 3c 55 5e 58 3e 87 9d 1f 3e
       -0.08545979 0.01691301 0.21129735 0.15587436
0000f0 ff c7 2e bd e4 a1 a1 bd e2 46 f6 bc 18 16 eb bc
       -0.0426712 -0.07892206 -0.030063096 -0.028697059
000100 1c 12 22 3d a0 6a f6 38 95 e0 55 3d b0 8b 0b 3e
       0.03956805 0.000117500545 0.05221613 0.13627505
000110 30 4f d0 3d 4e 06 82 bd 54 b9 74 bd e5 2a 4e bc
       0.10171354 -0.06348859 -0.059747055 -0.012583469
000120 5f a8 fc bc 87 d6 a6 3d 61 72 5e 3d c4 b6 42 3e
       -0.030842004 0.081463866 0.0543083 0.19015032
000130 51 9d 13 bd a7 17 2e 3d f1 92 16 3e 4f 67 cb bc
       -0.0360387 0.042503025 0.14704491 -0.024829535
000140 f8 31 de 3d 51 17 88 be b5 07 07 be 0d d8 89 bd
       0.108493745 -0.2658029 -0.13186534 -0.067306615
000150 1e 49 15 bd 92 f6 d5 3b d1 5f 0c 3e 62 2c e1 3d
       -0.036446683 0.0065296376 0.13708426 0.109947935
000160 c4 19 56 3e e5 96 70 3e 9e 0f 82 bd f6 23 8d bc
       0.20908266 0.23495062 -0.06350635 -0.017229062
000170 c8 e1 4e 3d 3c fd 9d 3d 60 28 ba bd f4 fa d2 bd
       0.05050829 0.07714316 -0.09089732 -0.10301772
000180 e9 72 60 be 2b 10 f8 be dd d5 cc be 46 d6 a2 3d
       -0.21918835 -0.48449835 -0.40006915 0.07951026
000190 ed 10 11 3c 44 d3 fd 3d 2c a2 25 3d af 7f b8 bc
       0.008854133 0.12393811 0.040437862 -0.022521822
0001a0 fd cf 57 bd f9 da c8 bd 51 06 0a be e0 18 32 be
       -0.052688587 -0.09807391 -0.13478972 -0.17392302
0001b0 7f e2 18 bd 9e 01 37 3d 29 ea f6 bc ae 93 c3 bc
       -0.03732538 0.044679277 -0.030140953 -0.02387413
0001c0 bd 3d 62 bd 94 64 7a 3b d4 62 84 bd 0a 14 00 3e
       -0.05523466 0.0038206922 -0.064641625 0.12507644
0001d0 fe e2 ae bd c6 58 ad bd 41 a4 d1 3d fc eb 85 3c
       -0.08539389 -0.08464198 0.10236407 0.016347878
0001e0 3d 1a 9a bd 74 49 82 bd 58 2a d2 bb b9 39 32 3e
       -0.07524536 -0.06361666 -0.006413739 0.17404832
0001f0 02 ce dc bd 41 88 e2 be 3e 9c 1a 3d 2c 42 4d 3c
       -0.1078148 -0.44244578 0.03774666 0.012527984
000200 d1 fa d2 3c 10 1d cd 3c 95 ce 21 bd 02 66 83 3d
       0.025754364 0.025038272 -0.039503653 0.06415941
000210 c0 87 9e 3d fe 24 7e 3e 42 c1 b8 3d f7 63 73 3c
       0.07740736 0.24818799 0.09021236 0.014855376
000220 ed b0 9d 3c 76 3b 8f 3d 4e e8 6f bc c7 4a 47 bd
       0.019249404 0.06993763 -0.014642788 -0.048655298
000230 1e 7f 4c 3d 14 99 f2 3d db 68 b0 3d 1f 33 95 3d
       0.049925916 0.118456036 0.086137496 0.07285141
000240 80 96 15 3e 38 be ff 3d 38 74 86 bd e0 e2 c8 3b
       0.14608192 0.12487453 -0.06565136 0.006130561
000250 71 c2 0f 3e 9b 3a 15 3d 80 12 29 3c 5f d1 22 3e
       0.14039017 0.036432844 0.010319352 0.15900181
000260 68 8d 15 3e 1f f2 a2 bb 88 bd c4 3b 91 69 9e bd
       0.14604723 -0.0049727107 0.006004039 -0.07734979
000270 e1 a3 99 bd bc b1 b9 bd e9 79 aa 3d ec 3a 01 bb
       -0.075019605 -0.09067103 0.08324034 -0.0019718958
000280 da dc 97 3d c8 ad 20 3d 9a ac 75 be 6d fa 88 be
       0.07415171 0.03922823 -0.23991624 -0.2675356
000290 38 16 c6 bc 6b 7e ad be e5 67 31 bf 1e b0 2e be
       -0.024180517 -0.33885512 -0.69299155 -0.17059371
0002a0 cb f8 23 be 23 ff aa be 3c 6c 85 be f9 03 87 bd
       -0.16012876 -0.3339778 -0.2605914 -0.065925546
0002b0 c0 61 ed 39 28 42 5f 3d 0e e8 51 be a5 20 43 bd
       0.00045276992 0.05450645 -0.20498678 -0.047638554
0002c0 ec db 0b 3e ec fb 00 be 39 68 dc bd 3c 24 ce 3d
       0.13658112 -0.125961 -0.107620664 0.10065505
0002d0 95 c7 c9 3d c6 b4 02 3e 40 7c c4 3c c2 10 af bd
       0.098525204 0.12764272 0.023985028 -0.08548118
0002e0 ce 66 f2 3d 29 53 06 3e d6 f4 2f be 4d 0c 44 3d
       0.11836015 0.1311766 -0.17183241 0.047863293
0002f0 78 e3 59 3d 23 be b2 bd c3 a5 ce bd a3 12 27 be
       0.053195447 -0.08727672 -0.1009021 -0.16315703
000300 d8 ab 21 be d1 0d e3 be 3e e1 a0 be 04 f0 31 3e
       -0.1578821 -0.4434648 -0.31421846 0.17376715
000310 b6 c7 ac be 0e ab 05 bf 32 55 d9 3d e3 20 3b 3d
       -0.33746117 -0.52214134 0.10611953 0.04568566
000320 be bf a4 bc e6 1a b8 bd a7 ea 6c 3d c4 fe 64 3d
       -0.020110961 -0.089895055 0.05784097 0.055907026
000330 9e c7 67 3d da 21 0c 3e 58 cc 39 3e 02 f4 8f 3d
       0.056586854 0.13684788 0.18144357 0.07028963
000340 f5 b5 e3 3d 0a 46 3f be 61 29 43 3d af 90 32 3e
       0.1111869 -0.18679062 0.047646884 0.17438005
000350 f7 aa 2f bd 59 61 c1 3d f8 83 80 3e 5d 4b 9e 3d
       -0.042887654 0.09442396 0.25100684 0.07729218
000360 9f 7f 3e 3b 4d 7a 27 3d b8 b6 91 bc 67 35 ea 3d
       0.0029067767 0.04088812 -0.017787322 0.11435967
000370 8e 59 92 3c 2a 6f 00 be d7 8b 9d 3d 0c 8c 03 bc
       0.017864969 -0.12542406 0.07692688 -0.008028995
000380 c6 59 12 be 6a 2e a8 be 5a 4f 06 3e 2e 0c 9c 3e
       -0.14292058 -0.3284791 0.13116208 0.30478042
000390 44 6c c6 bd 83 46 08 3e 9e 6a 2a 3d 48 af 4c 3d
       -0.09688619 0.13308148 0.041605584 0.04997185
0003a0 70 91 c5 3d 7d 3f 3c bc fd df 10 3e 13 77 e6 bc
       0.096468806 -0.011489746 0.14147945 -0.02813295
0003b0 c8 1d fb be 83 75 2c 3e 30 e3 18 bf 67 97 23 bf
       -0.4904616 0.16841702 -0.5972166 -0.63902897
0003c0 05 4d 58 bd 8f 1d 2e bf bb 60 73 bd 4e a8 3b 3d
       -0.052807827 -0.6801385 -0.05941842 0.045814805
0003d0 89 f9 e8 bb 64 67 57 be df ee ca 3d 19 1d fa bd
       -0.007109825 -0.21035534 0.09908842 -0.12212581
0003e0 7b 59 85 be dc 95 eb bd e2 eb 88 be 61 aa 51 3c
       -0.2604483 -0.11503193 -0.26742464 0.012796969
0003f0 d5 dd 9a be 53 25 99 bd c2 e9 86 3d 85 7f 3b be
       -0.3024737 -0.07477822 0.065875545 -0.18310364

conv.7.bias f4 [8]
000000 ec cd d0 3d ce 1d 8b 3d f2 0e e3 3d 53 82 28 3e
       0.101955265 0.06792794 0.11086835 0.16455965
000010 09 c1 43 3e 42 e2 f2 3d e4 56 52 3d a2 4e b1 3d
       0.19116606 0.118595615 0.051352397 0.08657576

conv.12.weight f4 [16, 8, 3, 3]
000000 01 e3 a8 bd d2 ba 27 3d ff af 94 3d 52 14 4c be
       -0.082464226 0.04094965 0.07260131 -0.19929627
000010 19 49 0b be 66 db 18 be c7 3c 60 bc b6 3a ce be
       -0.13602103 -0.14927444 -0.013686365 -0.40279168
000020 e7 5c c0 bd 72 88 e4 3c 7e 50 98 3c d2 66 68 3d
       -0.0939272 0.027897093 0.01859307 0.056738682
000030 fa 3a dc bb 45 df 16 be 62 63 8c 3c 75 b1 d8 bd
       -0.0067208977 -0.14733608 0.017137233 -0.10580722
000040 43 e2 72 be 45 1b 42 3d fe 44 e5 bd e5 52 c3 bc
       -0.23719124 0.047389288 -0.111948 -0.023843238
000050 af c1 5c bd 23 5e 59 3d e2 85 a7 3d 29 d2 43 3d
       -0.05389565 0.05306829 0.08179833 0.047807846
000060 9f 40 03 bd 1e c3 0c be 68 a2 69 3e 8b b3 bb 3d
       -0.03204405 -0.13746306 0.2281586 0.091651045
000070 75 97 8f bd f7 74 99 3d 68 72 36 ba 49 52 31 be
       -0.0701131 0.074930124 -0.0006959797 -0.17316546
000080 40 d2 fe 3d be be 6d 3d 52 cc ca 3c 8a 4b 21 3e
       0.12442446 0.058043234 0.02475563 0.15751472
000090 7e ba 42 3d b7 54 ba 3d dc ea 2f bc 30 d0 17 3c
       0.047541134 0.09098189 -0.010737147 0.009265944
0000a0 fc 9a 00 be 81 c6 df bd 13 06 37 3e 8a f3 6a be
       -0.12559122 -0.109265335 0.17873411 -0.22944465
0000b0 6a ec a3 bd 44 5a 83 3d fa f0 7a be 9c 89 b4 3d
       -0.08004077 0.06413701 -0.24505988 0.088153094
0000c0 3c 10 b1 bd df 9e 82 3c bc 13 2b bd ce fe 8c be
       -0.086456746 0.015944896 -0.041766867 -0.2753815
0000d0 ab 22 1f 3e 92 76 0e bc 17 ff 9f 3c 14 10 b1 bc
       0.15540569 -0.008695262 0.019530816 -0.021614112
0000e0 8c 48 9e 3d a0 52 bf 3d 93 a8 4d be 19 f6 e0 3d
       0.07728681 0.09341931 -0.20083837 0.109844394
0000f0 83 f1 fb bd 07 42 3c be 03 55 f8 bd be 4c 61 be
       -0.12301924 -0.18384562 -0.1212559 -0.22001931
000100 80 ba 8b bc 8a 91 98 bd 7c 2f 74 3e b3 95 19 be
       -0.017056704 -0.074496344 0.23846239 -0.14998512
000110 8c 8e 6c 3e 2a 15 8c 3e 2c 43 a8 be 95 0c 62 3e
       0.23101252 0.27359897 -0.32863748 0.22075112
000120 38 71 06 be 48 9c 95 3c c4 8d 38 bd 61 a3 62 3d
       -0.13129127 0.018262997 -0.045057073 0.05533159
000130 69 eb b2 3d 12 6e c0 3d 6d 44 1b be 75 65 d9 be
       0.08736307 0.09395994 -0.15162821 -0.42460218
000140 ea 0a 83 be 24 45 0a be 27 1d 9f bd 5e ef 56 bd
       -0.25594264 -0.13502938 -0.07769232 -0.052474372
000150 33 bc 95 3c 71 02 02 3e 6b 4f bb 3d 3f 2a 9f 3b
       0.018278217 0.12696244 0.09146007 0.004857331
000160 de b2 c8 bd 4a 9f 0e be 35 b5 62 bc 0d 28 96 bd
       -0.09799741 -0.13927951 -0.013837148 -0.07331858
000170 74 d7 b1 3a 3b 2f a8 3c 6e e3 e1 3c 1f a9 82 3e
       0.0013568238 0.020530334 0.027574267 0.25519654
000180 66 04 0c 3b ee b0 84 3d 14 3c 40 bc 93 c7 1c bd
       0.0021364926 0.06479059 -0.011733074 -0.038276266
000190 83 9a 52 3d 1d 7c 85 3d 74 34 ae bc b8 a2 55 3d
       0.051416885 0.06517813 -0.021265246 0.052157134
0001a0 99 86 22 3b a4 67 3e 3e e1 85 e6 3d ba a3 2a bd
       0.0024799465 0.18594223 0.11256004 -0.041660048
0001b0 90 4a 71 be 28 d7 38 be 7d 88 d3 bc 15 1a ab 3d
       -0.235636 -0.18050826 -0.025821919 0.08354584
0001c0 9a 90 0a 3d c7 a9 c8 3d 00 33 a7 3d e7 6c b3 bd
       0.03382931 0.097980075 0.08164024 -0.08761006
0001d0 4a 68 1b 3e 97 86 b3 3c de 59 8f bb 49 87 0c be
       0.15176502 0.021914763 -0.0043747267 -0.13723482
0001e0 05 a6 57 3d 71 1f ac bd 66 5c 71 be 5d 78 ec 3d
       0.052648563 -0.084044345 -0.23570403 0.11546395
0001f0 56 f9 7c 3e 98 36 d7 3c 10 b3 c4 bc 7c b6 1d bd
       0.24704489 0.02627115 -0.024011165 -0.03850411
000200 53 ba d0 bc d0 51 a2 3d 61 32 11 be 3e df a8 bd
       -0.025479471 0.07925761 -0.14179374 -0.08245705
000210 b7 c8 88 be f1 2f 17 bf 8b 1c 91 be db 20 9c 3d
       -0.26715633 -0.5905753 -0.2834209 0.07623454
000220 f1 22 88 bd 93 1b 42 3d 8d 7b a6 3d 93 5d 89 bd
       -0.066472895 0.047389578 0.08129034 -0.06707301
000230 3a 03 ad bd 24 0a fc bd 50 52 ec bd 7b 16 ed 3c
       -0.08447881 -0.12306622 -0.11539137 0.028941384
000240 cb 97 a9 be cb 0c 0b 3d 22 ad e6 3d 97 8b a6 bc
       -0.3312362 0.033947747 0.11263491 -0.020330233
000250 84 c2 78 3d 55 d3 10 be 59 a6 32 bc 6f d6 70 bd
       0.06073238 -0.14143117 -0.010903918 -0.05879825
000260 f8 e3 d5 bd 63 e1 5b be 59 7f 62 3d 95 c9 b7 3d
       -0.10443872 -0.21472697 0.05529723 0.089739956
000270 2e 61 45 3e 0e 3d 1c 3d a7 2f 7b bd 95 53 a9 3d
       0.19275352 0.038144164 -0.06132474 0.08267895
000280 aa c5 1b be fc 58 85 3d c5 71 34 be 59 14 c1 bd
       -0.15212122 0.06511113 -0.17621525 -0.09427709
000290 97 85 28 be 4c 52 2b 3d c8 4e 2d be da 73 70 be
       -0.1645721 0.04182653 -0.16924584 -0.23481694
0002a0 e2 9c 27 bd 35 e1 91 be 38 05 87 be 01 9e 5f 3d
       -0.0409211 -0.28492132 -0.2637117 0.054594044
0002b0 a9 bf 5a 3e 7e 56 48 3d 83 a6 0b 3e af 95 5d 3e
       0.21362175 0.04891061 0.13637738 0.21639131
0002c0 7a fa 4e 3d 01 a4 4e 3e 82 0c 8b bd 62 db 11 be
       0.05053184 0.2017975 -0.06789495 -0.14243844
0002d0 1b 77 69 be 22 70 b8 bd cc ea 91 bc 3c 48 1f be
       -0.22799341 -0.09005763 -0.017812155 -0.15554899
0002e0 b3 b3 bf 3d 5b 91 6c bd be 50 47 bd ba 7a 89 bc
       0.09360447 -0.05775581 -0.048660986 -0.016782153
0002f0 15 2b 9f be 57 f5 4e bd 5c 18 85 3e 8d 74 26 bb
       -0.31087556 -0.050526943 0.25995147 -0.002539906
000300 73 cc 7c 3e 87 f0 6c 3d 4e c7 a9 3a 86 45 75 bd
       0.24687366 0.057846572 0.0012953074 -0.059880756
000310 7c 78 1b be ef ac 74 3e a1 9c 0a bd 20 12 17 3e
       -0.1518268 0.23894094 -0.03384078 0.14753008
000320 b3 ee 62 3d a6 86 31 3e 4e 22 83 3d b9 db 2f be
       0.055403423 0.1733652 0.064030275 -0.17173661
000330 b6 ad 17 be 3c 64 61 bd 83 85 2f 3d 77 0b fd bd
       -0.14812359 -0.05502723 0.042851936 -0.12355702
000340 bf 16 2d be bd 48 d4 bd 4f d3 f0 bd 88 31 95 bc
       -0.16903208 -0.10365436 -0.11759054 -0.018212095
000350 af 9e 15 be c0 4f 52 3d a4 3f 4e bd eb bf 0c be
       -0.14611314 0.051345587 -0.05035366 -0.13745086
000360 29 10 9d 3d 52 82 40 3d 15 4c 71 3b e8 09 cd be
       0.07669098 0.046999283 0.003681903 -0.4004662
000370 94 b5 8e be fb a0 ca 3d c6 7c 2b 3d 64 39 86 3b
       -0.27872908 0.09893986 0.04186704 0.004096197
000380 71 50 73 3d c9 8f a6 bd bf f9 96 3d 51 56 29 bd
       0.059402887 -0.081328936 0.07371854 -0.041342083
000390 0a e7 bf be a5 c8 8e 3b b4 65 46 3d 98 28 53 3d
       -0.37480956 0.004357415 0.048436835 0.051552385
0003a0 68 9b cb 3d 00 0a b8 bd f5 ea 45 bd 68 70 42 3e
       0.09941751 -0.08986282 -0.048319776 0.18988192
0003b0 52 97 0c 3d 53 4a ab be 55 a9 6c 3d f2 bf 24 3e
       0.034323998 -0.33455142 0.057778675 0.16088846
0003c0 ba 90 eb bc 0b 1f cf 3b 62 b6 99 3c 9f f7 5b bd
       -0.028755534 0.0063208393 0.018763725 -0.053702947
0003d0 35 4b 2d bd 96 a9 cb bd 60 c9 bc be 8c b0 89 bc
       -0.04230805 -0.09944455 -0.36872387 -0.016807817
0003e0 61 3c a1 bd 6b fb 06 3d f6 8a 1c 3e f7 8a 11 be
       -0.078728445 0.032954615 0.15287384 -0.14213167
0003f0 95 e5 59 3e e1 bd 19 be a8 ac c0 bd 37 a7 25 be
       0.21278985 -0.1501384 -0.094079316 -0.16177069

conv.12.bias f4 [16]
000000 56 61 27 3d ac 9d c1 3d 6d de ec 3c 34 a9 62 3d
       0.04086431 0.09453902 0.028914655 0.055337146
000010 cf b5 5d 3d ca 4e 20 3d b6 3d 03 3e 44 bf 4e 3d
       0.054128464 0.03913764 0.1281651 0.050475374
000020 ce 06 e5 bd 04 a5 12 3c a8 0c aa bd db c0 0e 3e
       -0.111829385 0.008950476 -0.08303195 0.13940756
000030 6a ef 92 bc de 65 33 3d 12 9d 8e 3d 0a 7d 9c bd
       -0.017936427 0.04379832 0.069635525 -0.07641037

fc.0.weight f4 [256, 784]
000000 31 d7 e7 3d c6 76 a1 3c e2 dc 3c bd cd 42 f6 bd
       0.113203414 0.019709956 -0.046109088 -0.1202446
000010 cf 20 96 3e 9b 7c 78 3d f3 14 2c be bd 93 10 3e
       0.29321906 0.060665708 -0.16804866 0.14118858
000020 c7 b6 cd bd 86 4a 89 bd 17 cc b5 3d b6 01 a7 bd
       -0.10044628 -0.06703667 0.08876818 -0.08154623
000030 6f bd b9 bd 9e 20 87 be 17 85 f8 bd 9c 1d 40 be
       -0.09069335 -0.26392072 -0.1213476 -0.18761295
000040 29 4d 87 be e2 ba 0a 3e 13 62 14 3c 64 4e e6 bd
       -0.26426056 0.13547853 0.009056586 -0.112454206
000050 39 50 dc 3c 11 42 d6 bd fd 32 56 3c 0f 80 f1 3b
       0.026893722 -0.1046182 0.01307368 0.007370002
000060 eb 8f 14 be 08 b3 8f bc 15 35 af 3d 3c 24 24 bd
       -0.14508025 -0.017541423 0.085550465 -0.04007362
000070 24 cc 80 bd b6 0c d2 3d d8 6a 23 be f4 3f 17 3d
       -0.06288937 0.10256331 -0.15958726 0.036926225
000080 15 c8 a4 bc 2a 57 c5 bc 32 90 95 bb 83 2d e9 bd
       -0.020114938 -0.024089415 -0.0045643086 -0.11385634
000090 22 7d 47 be 0e b3 1a 3e 88 30 84 3e eb 94 5d 3d
       -0.19481328 0.15107366 0.25818276 0.054097097
0000a0 bc 31 a7 bd 32 cc de bd e5 1f 87 bd f4 e4 40 3c
       -0.08163783 -0.10878791 -0.0659788 0.011773337
0000b0 35 bc d3 bd 9c 7c fe 3d 0a 2e 24 bd 89 63 33 3d
       -0.10338632 0.12426111 -0.04008297 0.043796096
0000c0 4b a9 ec bd c1 40 8e bd 51 43 79 be 3e 3d 7c be
       -0.115557276 -0.069459446 -0.24342085 -0.24632737
0000d0 a1 8c 0c be 43 45 d1 3d 0d 91 1c 3e 80 e8 a7 3d
       -0.1372552 0.10218289 0.15289707 0.08198643
0000e0 c7 5c f8 bd 29 ff bd bd ad e4 80 3c 8f 29 6b be
       -0.12127071 -0.092771836 0.015734041 -0.22965072
0000f0 b9 a8 a1 be 57 5a 42 be ff 0d 0c bd 0d c6 b3 bc
       -0.31574038 -0.18979774 -0.034193035 -0.021945024
000100 56 3b e8 3d 06 64 96 bd 35 97 ac ba ca 81 d2 3d
       0.113394424 -0.07343297 -0.0013167622 0.102786615
000110 06 c6 21 3e 15 bb 98 bd 14 58 fb bd f2 87 0d bd
       0.15798196 -0.07457558 -0.12272659 -0.034553476
000120 6b f9 0e be 06 a4 27 be 8f 7f b9 3d 21 d4 a1 bd
       -0.13962333 -0.16371164 0.09057533 -0.079017885
000130 85 a7 15 bd dc b9 61 be a7 16 52 be 82 eb 17 be
       -0.036536712 -0.22043556 -0.20516454 -0.14835933
000140 9f 5e 14 bd 8b c3 94 3d fd 07 ab 3b 85 20 38 bd
       -0.03622305 0.07263859 0.005219458 -0.044952888
000150 58 f2 0a 3e b3 d8 fd 3d 52 58 9a bc f3 60 0d be
       0.1356901 0.12394848 -0.018840943 -0.13806514
000160 52 61 47 bc 40 5e 79 bd db d1 0d bd 22 b6 3e 3e
       -0.012169199 -0.0608809 -0.034623962 0.18624166
000170 d0 84 0f 3e 16 18 e9 3d 4d 7a 16 be 4a 5a 01 be
       0.14015508 0.11381547 -0.14695092 -0.12632099
000180 2e ad 21 be 0d 0b c3 bd 7f 30 ff bd ed 97 8a be
       -0.15788719 -0.09523592 -0.12460422 -0.27069035
000190 b3 ba 26 be c6 ce 94 3e e8 de 61 bd c0 09 35 3b
       -0.16282158 0.29064006 -0.05514422 0.002762422
0001a0 a1 70 80 bd 54 34 8a be dd a7 13 be b8 2e cd 3d
       -0.06271482 -0.26993048 -0.14419504 0.100186765
0001b0 bf 01 41 bd 68 86 5b be f4 67 2a be a2 29 c9 3c
       -0.047120806 -0.2143799 -0.16641217 0.024555985
0001c0 46 ee 56 bd 6c 83 93 be 7b a8 49 3d 86 60 2d be
       -0.05247333 -0.28811204 0.04923294 -0.16931352
0001d0 26 e5 86 3d 4e 13 ce 3d 1b e9 4d bd 7b e9 35 3b
       0.06586675 0.10062276 -0.050271135 0.0027757573
0001e0 8c e4 99 bd ea b3 1f bd 80 6d 19 3c 8b 0b dc 3d
       -0.07514295 -0.03898994 0.009364486 0.10744389
0001f0 f3 96 22 be 10 62 b7 bd 0e a2 dd 3d e3 38 a6 bd
       -0.15877895 -0.08954251 0.10821925 -0.08116319
000200 96 a5 3e 3e fe e8 e2 3d 7f a7 e7 3d ae c0 8a bd
       0.18617854 0.11079596 0.11311244 -0.06775032
000210 fc 32 36 be 7d 65 99 3c 17 d2 5e bd f1 88 21 3d
       -0.17792886 0.018725151 -0.054399576 0.039437238
000220 54 7c a5 bd bd 32 d5 3d 11 f9 96 3d d9 72 89 be
       -0.08080354 0.10410068 0.073717244 -0.26845434
000230 fa b4 74 3d d1 17 68 3d 46 a0 90 3a c1 d5 a0 3b
       0.059742905 0.056663338 0.0011034093 0.004908294
000240 4f 18 1f be 7d 04 77 3d a0 52 0f be 9d da d5 3c
       -0.15536617 0.060307015 -0.13996363 0.02610522
000250 86 fb bb 3d 20 9b 95 bd ea 2b 72 be b1 ba 7d be
       0.09178834 -0.07304978 -0.23649564 -0.24778248
000260 88 1b 74 3d 9a 2e 64 3d 61 ea 89 3b 46 bd d8 3b
       0.05959657 0.055708505 0.0042088483 0.00661436
000270 8c 02 9a bc 89 80 70 bd b2 d6 43 3c 14 8f 96 3d
       -0.018800043 -0.05871633 0.011953043 0.07351509
000280 cf 0d 34 3d 22 cc b2 3d e8 77 bf 3d b9 2c 36 be
       0.04395848 0.087303415 0.09349042 -0.17790498
000290 98 d8 44 3a 05 98 ac 3c e3 19 da bd c3 98 11 be
       0.00075090816 0.021068582 -0.10649469 -0.1421843
0002a0 d5 1b c0 bd 13 08 dc 3b cd 59 08 be 0e ce d1 bc
       -0.093803085 0.0067148297 -0.13315506 -0.02561095
0002b0 a2 b5 2f 3c ee 58 06 3d ab 0d 06 3e a4 38 b6 3c
       0.010724457 0.032799654 0.13091151 0.022243805
0002c0 9a 99 c5 bc da 51 69 bb b2 0f 0b be 20 65 7c 3c
       -0.024121094 -0.0035601766 -0.13580206 0.015404969
0002d0 37 94 a3 bd 46 9f 8a 3d f9 31 82 bb 14 fd 23 be
       -0.07987254 0.0676866 -0.0039732424 -0.1601451
0002e0 5b ed ca bd 23 1b b6 3c 99 47 02 3e 0d f7 96 3d
       -0.09908553 0.022229737 0.12722625 0.0737134
0002f0 c7 e5 29 3e 67 bc 03 3d 0b cd d4 bc da ee 43 be
       0.1659156 0.032162096 -0.025976678 -0.19134083
000300 73 6b 50 be f2 a3 44 3d ed 23 46 be 45 80 55 bd
       -0.20353489 0.048007913 -0.19349642 -0.05212428
000310 c3 61 ef bc 04 f1 a5 3d 0c 97 b4 3b c7 26 20 3e
       -0.029221421 0.08102611 0.0055111703 0.15639792
000320 f8 40 d3 3c d5 f1 b4 3b 3a 07 9f bd 94 03 ba 3d
       0.025787815 0.0055219927 -0.0776505 0.09082714
000330 d0 a1 fa 3d e4 73 b6 3d 5b 7b 13 3c 56 e7 c0 bd
       0.122378945 0.08908823 0.009001578 -0.09419124
000340 46 58 91 be 8a 52 ac bd b2 9c 00 be 5e 49 78 3c
       -0.2838766 -0.084141806 -0.12559775 0.015154211
000350 3e c4 8d 3e 67 6d 95 3d f5 b9 86 3d f1 aa ab 3d
       0.27688783 0.072962575 0.06578437 0.08382214
000360 f6 53 91 3c 91 28 f3 bd ef 04 33 bd dc 6c 1d be
       0.017740231 -0.11872972 -0.043705877 -0.15373558
000370 e6 ef 02 3e a1 c5 61 3e ff 29 bc 3d 42 8a 6a 3d
       0.12786826 0.22048046 0.091876976 0.05726076
000380 b0 dc 41 be 94 7a 95 be 22 75 67 be 03 83 40 be
       -0.18931842 -0.29195082 -0.22603276 -0.18799977
000390 a5 b0 67 3c 5e 8a f7 3b e2 c3 4d 3c 69 44 39 3e
       0.014141236 0.0075543365 0.012558909 0.18092503
0003a0 46 76 74 3d bb df cd 3b 17 66 e2 3d e9 be f2 bd
       0.059683107 0.0062827743 0.11054628 -0.118528195
0003b0 2d 76 82 3d b5 d4 cb bd 4c 71 1e 3e 7a 6f 7b 3d
       0.063701965 -0.0995268 0.15472907 0.06138561
0003c0 a0 54 fd 3c 25 5f 2a be 34 0f 19 be cd 26 9c bd
       0.030924141 -0.16637857 -0.14947206 -0.07624588
0003d0 c4 f6 90 3c 14 3f 82 3a 03 29 ac 3b 7e 6a 57 bc
       0.017695792 0.0009937012 0.0052539124 -0.013147948
0003e0 1d ec 7b bd 71 c9 f3 bd 77 c3 4d be 89 c8 3c be
       -0.061504472 -0.11903656 -0.20094095 -0.18435873
0003f0 b5 4f 8f bd 43 21 54 3c 4b ab a7 3c fa 7e 4c bc
       -0.06997625 0.012947383 0.020467421 -0.012481445

fc.0.bias f4 [256]
000000 f3 b7 e8 bd e1 b8 87 3d a4 4b e7 bc 32 99 9a 3d
       -0.113632105 0.0662706 -0.02823431 0.07548751
000010 26 0b 44 bc 83 c3 b3 bd f5 df af bd 1d 96 44 3e
       -0.011965549 -0.08777525 -0.08587638 0.19197889
000020 ff 9a 6f 3c 4b 2e c7 bd 3e 17 8a 3c 26 c6 14 bd
       0.014624356 -0.097256266 0.016856786 -0.03632178
000030 7f 06 a7 bd ce b1 1d bd f0 af 03 be 25 48 8d bd
       -0.08155536 -0.038499646 -0.12860084 -0.06898526
000040 b8 f8 b5 3c 5c 4f 8c bd 5b 58 2e 3d 78 80 1c bc
       0.022213325 -0.06851074 0.04256473 -0.009552114
000050 0d 06 19 3d b9 a8 f6 bc 27 9f b3 bd 81 d1 28 3d
       0.037359286 -0.03010975 -0.0877059 0.041215423
000060 2a ef 0f 3d da f6 0f 3d 9f eb 06 3d 95 c0 df 3c
       0.035140194 0.035147525 0.03293955 0.02731351
000070 87 eb a6 bd 24 be e8 3c 6e a1 94 bb c0 38 2b bd
       -0.08150392 0.028410979 -0.0045358455 -0.041802168
000080 5a 1c 98 bd 52 de 10 3e 20 8a ed bd 5f 39 22 bd
       -0.07427283 0.14147308 -0.11598611 -0.039605495
000090 f7 37 b8 3c 37 3a 17 3c cb 02 cc bd b2 c3 a5 3b
       0.022487624 0.009230188 -0.0996147 0.005058729
0000a0 2b 85 b1 3c a7 fa 2a bd 79 e9 71 bd a7 5a a4 3d
       0.021669945 -0.041742947 -0.059060548 0.08025103
0000b0 2e 8a 5a bd 1c 6f a5 bd dd 9c d2 bd 96 8d 14 bd
       -0.053354435 -0.08077833 -0.102838255 -0.03626784
0000c0 57 63 be 3d aa 9f 54 bd d2 c9 c3 3d e9 33 2b be
       0.09296291 -0.05191008 0.095599785 -0.16719021
0000d0 88 a0 d5 3c f0 35 36 bd 84 70 d0 bc 28 24 38 bd
       0.026077524 -0.044485033 -0.025444277 -0.044956356
0000e0 e6 34 0e be 6b 39 b3 3c a4 69 21 3b 3c a3 b6 3d
       -0.13887367 0.021877965 0.0024629617 0.08917853
0000f0 58 25 e3 bd 7b a2 d3 bc 43 2d d9 3d 1c a7 9d bd
       -0.11091107 -0.025834313 0.10604336 -0.07697889
000100 f7 51 35 3d ec 7b 44 bd cf f3 04 be ef e7 c5 bd
       0.04426762 -0.047969744 -0.1298363 -0.096633784
000110 fe f3 ed 3a 86 e9 1c 3c 6f 3b af bd 04 69 07 3e
       0.001815438 0.009577161 -0.08556258 0.13223654
000120 f1 51 df bc a5 48 8d bd 57 ce 40 3e a5 9c 15 bd
       -0.027260752 -0.068986215 0.18828712 -0.03652634
000130 57 7c 5f bd d5 39 eb bd fe 0c 92 3c 36 18 ec bd
       -0.05456194 -0.1148564 0.01782846 -0.11528055
000140 62 1f 9f bd be f7 a7 bd 93 97 90 3d e3 ee 07 bd
       -0.07769658 -0.0820155 0.070601605 -0.033186805
000150 f7 35 3f 3d 17 07 99 bc bb 1b bb 3d 58 5d 44 3e
       0.046682324 -0.018680139 0.091361485 0.19176233
000160 c3 99 50 bd e7 9d 62 3c 15 6d c0 bd 93 c7 ac 3d
       -0.05092789 0.013831592 -0.09395806 0.08436503
000170 c6 25 bf 3d e8 96 10 be 1f fa 6d 3d 21 b4 6e 3d
       0.093333766 -0.14120066 0.058099862 0.058277253
000180 a3 e5 1e bd 50 55 32 bd da 51 54 3d 18 f2 e0 bb
       -0.038793217 -0.04353839 0.051835872 -0.0068647973
000190 17 38 80 bd c5 4c 21 3e 0c ca e8 3d 51 8d bb 3d
       -0.06260698 0.15751942 0.113666624 0.09157813
0001a0 43 61 8f 3a bf a6 df bd 93 e3 40 3e 68 94 8b bd
       0.001093902 -0.10920476 0.18836813 -0.068154156
0001b0 c6 be ef bd 5b 77 b7 bd ce 27 0d bd 53 15 8d bd
       -0.11706309 -0.08958312 -0.03446179 -0.06888833
0001c0 c6 19 57 3d 52 5c 99 3c cb f8 ca bd c4 58 2a bd
       0.052514814 0.01872078 -0.09910735 -0.04158856
0001d0 80 39 e8 bd 6f 20 d4 bd c4 3f f3 3c 0a d2 7d 3d
       -0.11339092 -0.10357749 0.029693492 0.061967887
0001e0 cc 40 9f 3d f0 aa e0 bc 8c 9b d8 bc 58 8f 0b bd
       0.07776031 -0.02742526 -0.026441358 -0.03407225
0001f0 06 ef 91 bd 13 51 78 bc 19 ac ac ba 60 87 db bd
       -0.07125668 -0.015156048 -0.0013173848 -0.1071918
000200 3a 09 a9 3d 71 d1 00 bd dc 33 1f bd 6a c8 c2 3d
       0.08253713 -0.03144974 -0.038867816 0.09510882
000210 15 c9 74 bd de 17 aa bc 8e 1a e7 bc e9 91 62 3d
       -0.05976208 -0.020763334 -0.028210904 0.055314932
000220 62 d3 c1 3c d4 87 76 bd c1 61 ce bd b7 94 5c bc
       0.023660365 -0.06018813 -0.10077239 -0.013463191
000230 bf 18 a0 bb b1 00 98 bc 0b 46 84 3d 1f 2f b2 bd
       -0.0048857625 -0.018555017 0.06458672 -0.08700394
000240 b2 e9 96 bc 16 6f da 3d 14 a0 d3 3d 63 b1 b2 3d
       -0.018421981 0.10665719 0.10333267 0.0872524
000250 a8 95 ad bd 90 c8 53 3a 47 4e c9 bd 74 fd 1a 3d
       -0.0847581 0.00080788974 -0.09829383 0.037839368
000260 08 a2 a9 bd 2c c0 6c bc 5a f8 64 3c 21 ac 04 39
       -0.08282858 -0.014450114 0.013975227 0.00012652624
000270 bc 0b 37 bc c1 57 2c bd 1e 69 80 bd 09 2e 85 bc
       -0.011172231 -0.042075876 -0.062700495 -0.016257303
000280 34 c3 af bc c9 ec 4c be 17 fa 82 bd 19 cd f4 3d
       -0.021455385 -0.20012201 -0.06395357 0.11953182
000290 4f 88 8d bd 77 8a 97 3c a4 10 82 3d 9d 50 ce bd
       -0.069107644 0.018498642 0.0635083 -0.100739695
0002a0 3b dd f8 bd e5 d3 0f bc 92 93 00 3b 99 ad 6b bd
       -0.12151571 -0.008778547 0.0019619209 -0.057538603
0002b0 0b ad ad 3d 93 8c 09 be d5 98 bf bc c9 13 1c 3c
       0.08480271 -0.13432531 -0.023388306 0.0095262015
0002c0 1b f4 1e be 4c d1 4f bd c1 4c 47 bd 4b 76 16 be
       -0.15522806 -0.05073671 -0.048657183 -0.14693563
0002d0 f1 12 05 be 2f 57 4f bd c0 da 66 bd 30 38 01 bd
       -0.12995507 -0.050620254 -0.05636096 -0.031547725
0002e0 9f 83 59 bd b9 56 00 3d 6f 60 04 be 08 29 1b bd
       -0.05310404 0.031332705 -0.12927411 -0.037880927
0002f0 0b 6b 9c bd e6 70 ba bc a3 d9 69 3d a7 5e d1 3d
       -0.07637604 -0.022758912 0.05709232 0.102231316
000300 80 04 31 bd 45 48 68 3d 73 22 1b be 75 87 2b bd
       -0.043217182 0.056709547 -0.1514986 -0.04187723
000310 bf 71 83 3d 2d f2 cd 3c 10 cc 25 3d 71 a3 e0 bc
       0.0641818 0.025139892 0.040477812 -0.027421685
000320 a1 33 b3 3c e6 76 63 bd 67 05 ab 3d 76 92 b3 bd
       0.021875205 -0.055533312 0.0835064 -0.087681696
000330 c2 95 57 3e 28 76 b4 3c cf 74 c0 bc d6 25 84 bb
       0.21053222 0.022028998 -0.023493199 -0.0040328307
000340 d2 62 c2 bc 4c e4 96 bd 3a 0f 17 bd a2 19 c4 bd
       -0.023728762 -0.07367763 -0.036879756 -0.095752016
000350 d4 95 a9 bb 44 7b c6 3c af 22 cf 3b 68 89 f6 bc
       -0.0051753316 0.0242287 0.0063212733 -0.030094817
000360 9f 3d 57 bd 79 ce db 3d dd 90 d7 3c b1 4d 85 3d
       -0.052549 0.10732741 0.026314193 0.06508959
000370 a7 8d 0d bd 1b 5d a2 bd a6 9e 73 bd 40 52 38 be
       -0.03455892 -0.07927915 -0.05947747 -0.18000126
000380 10 b3 f1 3d b8 7f 35 3d e1 20 19 bd 97 95 d9 bd
       0.118017316 0.044311255 -0.03738487 -0.10624235
000390 2c e1 3e bd d3 22 59 bd fc 55 12 3d 3f cd b5 3d
       -0.04660146 -0.053011727 0.035726532 0.08877038
0003a0 13 3d 98 3d d2 3e d4 3d 49 58 bb 3d b3 57 e6 bc
       0.07433524 0.103635445 0.091476984 -0.02811799
0003b0 d9 4e 11 bd 07 f5 4d bd f1 3f 30 ba da c6 2e 3d
       -0.035475586 -0.050282504 -0.0006723395 0.04267011
0003c0 04 63 91 bd dd ce d6 3b 18 9c 80 bd 9f 27 55 bd
       -0.07098964 0.0065554217 -0.062797725 -0.05203974
0003d0 bd bf 01 be 27 d2 97 3b a5 f9 7f bd 01 d5 44 bd
       -0.12670799 0.0046332064 -0.06249394 -0.0480547
0003e0 cd a3 19 3e 81 21 2a 3e 16 f7 72 3d fc a8 1d be
       0.15003891 0.16614343 0.05931767 -0.15396494
0003f0 ca 14 06 be 84 3a 06 be e6 a9 f6 bd 60 1c 2d be
       -0.13093868 -0.1310826 -0.12044124 -0.16905355

fc.3.weight f4 [128, 256]
000000 bb 4f 2e 3e 38 31 da 3d a6 c9 10 3d d8 35 09 be
       0.17022602 0.10653919 0.035348557 -0.13399446
000010 8a 5a 5b 3d 05 ba c9 3e 9c 27 37 3e cb 4c 17 be
       0.05355314 0.39399734 0.17886204 -0.14775388
000020 2e f8 bf bd be 27 cb 3d 43 e0 20 bd 85 f6 87 3d
       -0.093735084 0.099196896 -0.039276373 0.06638817
000030 42 85 83 bd 93 ca 3b 3d 08 33 29 3e ff 22 c6 bd
       -0.06421901 0.045847487 0.16523373 -0.09674644
000040 cc 41 1e 3e 66 5c 59 3e 58 a9 53 3e bb 28 b7 3d
       0.15454787 0.21226653 0.20670068 0.089433156
000050 e1 7e 1d bd 7f d6 62 b9 95 86 cb 3c 53 41 48 3e
       -0.03845108 -0.00021632946 0.024844447 0.19556169
000060 56 3c 13 bd 69 fc fb 3c e6 55 28 be 41 e1 ba 3d
       -0.035946213 0.030760007 -0.16439018 0.09124995
000070 77 fb 65 bd fa 4c 9f 3d a7 f2 b5 3d c0 d1 28 bd
       -0.05614802 0.07778354 0.08884173 -0.04121566
000080 c3 d3 15 3d 6d 35 a8 bb ab 38 ef ba 2e 5d 79 bd
       0.036578905 -0.005133322 -0.0018251141 -0.06087988
000090 34 7e b2 3d 26 1b de 3d 62 9f 9f 3d 4d 78 00 bd
       0.087154776 0.10845022 0.07794072 -0.031364728
0000a0 1e cf a0 bd df 41 a4 bc 19 6a 81 3d af e9 19 3b
       -0.078520045 -0.020050941 0.06319065 0.0023485234
0000b0 3b 48 97 bc a7 96 2c 3d 76 0f cd 3d 18 4f 61 bd
       -0.01846706 0.04213586 0.100127146 -0.05500707
0000c0 ce d5 0c bd 6e 51 be 3d de 89 58 be c9 38 13 3d
       -0.034383588 0.09292875 -0.21146342 0.035942826
0000d0 1f a7 3f 3c f6 0c ec bd 75 07 05 bc 23 09 2b 3c
       0.01169756 -0.115259096 -0.008119454 0.01043919
0000e0 89 29 f8 bd 5d 10 a0 bc 77 69 ad 3d 8c b0 8b 3c
       -0.12117297 -0.019539053 0.084673814 0.017051958
0000f0 ba 9d bb 3d a6 40 c0 bc 43 cd 7f bd bf 67 32 3e
       0.09160943 -0.023468327 -0.062451612 0.17422388
000100 01 4f 59 3d 62 d6 6b ba 87 04 0b 3e c3 75 45 bd
       0.05305386 -0.0008996484 0.13575946 -0.04820801
000110 ad 46 ef bb 12 0e 15 bd c0 0f 8a 3c 3d 3c ef 3d
       -0.0073021264 -0.03639037 0.016853213 0.116814114
000120 b6 11 54 3d b6 04 61 bc f3 76 10 3d fb f9 4b 3d
       0.051774703 -0.013734033 0.03526969 0.049798947
000130 09 22 34 be 5f b9 ef 3d 46 95 70 3e e0 97 24 3d
       -0.17591108 0.117052786 0.23494443 0.0401839
000140 6a 26 c4 bd 41 a6 af bd d1 9e 44 be 9e 2e d7 3c
       -0.095776394 -0.08576632 -0.19201209 0.026267346
000150 56 03 90 3c a1 78 eb 3c 86 f4 a6 bd 50 80 b1 3d
       0.017579716 0.028744044 -0.08152108 0.08667052
000160 36 87 d8 bd 5d c6 fc bc 3f f3 e7 bd fe 22 84 3d
       -0.105726644 -0.030856306 -0.113256924 0.06451987
000170 82 b3 31 be 30 eb e0 3d e4 09 2f be b0 1b e5 bc
       -0.17353633 0.109823585 -0.17093617 -0.027967304
000180 ee ad a1 3e 8d d8 1d 3c a8 2f d7 3d df 9a 12 3d
       0.3157801 0.009634149 0.105071366 0.035792228
000190 ee 43 d5 3d 92 10 de 3d df a1 b8 bd 60 d2 7b be
       0.10413347 0.10843004 -0.090152495 -0.2459197
0001a0 13 c6 60 3d b1 04 d7 bc db d6 c1 3d cc 52 43 bc
       0.0548764 -0.026247354 0.094648086 -0.011921596
0001b0 3b c6 85 3d 39 ac 12 be 64 2c 18 bc b1 61 46 3d
       0.0653195 -0.1432351 -0.009287927 0.04843301
0001c0 3b cc fd 3d ae b9 1f 3e 75 0a 3d bd e2 bd 5f 3d
       0.123924695 0.15598175 -0.04615255 0.054624446
0001d0 28 fc 38 3d 86 26 1f bd fb 9a b1 bd d2 6e d5 3c
       0.04516235 -0.0388551 -0.08672138 0.02605382
0001e0 5f cd 1f be 08 23 0e bd 35 ee 6e bb 90 d7 a6 bd
       -0.15605687 -0.034701377 -0.00364579 -0.08146584
0001f0 da 6c 59 3d 61 ca c5 3d 77 28 ae bd 1f 2a 73 bd
       0.053082325 0.09657741 -0.08503812 -0.05936634
000200 54 8f b9 bd 20 03 4b bd 6b d3 0f 3d 58 a6 30 bc
       -0.09060541 -0.049563527 0.035113733 -0.010781847
000210 52 0a bf bd c1 a3 c7 bc 43 70 4e bd 01 fd 72 3e
       -0.0932814 -0.024370076 -0.05040003 0.23729326
000220 b5 99 8d 3c 7e 85 ac bd 36 d4 85 bd 28 1a 32 bd
       0.017285207 -0.08423899 -0.06534617 -0.043481976
000230 55 0a 9c bb 68 92 53 3c ac 08 12 3e 22 45 7f bd
       -0.004761974 0.012913324 0.1426112 -0.06232179
000240 b1 36 e5 3d 75 65 c0 bc c1 49 91 bc 88 af b7 bd
       0.11192072 -0.023485878 -0.017735364 -0.08969027
000250 21 da ba bb e2 97 5a bd 0c 2b 17 3e c9 44 89 3d
       -0.0057022725 -0.053367503 0.14762515 0.06702573
000260 86 cf 9d bd 24 7f 5f bd e1 df 80 3c de 31 3b bd
       -0.077055976 -0.05456461 0.015731754 -0.045701854
000270 bd d4 98 3c 3e bd f7 bc c4 9b a9 bd 14 f1 f5 3d
       0.018656129 -0.030241605 -0.08281663 0.12008873
000280 3c ce 28 be 47 ef 94 bd 09 23 6e 3c a9 81 aa bd
       -0.16484922 -0.07272201 0.01453472 -0.08325512
000290 5b 0a 62 bc 49 57 27 3d b8 22 b3 bc eb 6f 9f 3d
       -0.013796414 0.040854726 -0.021867141 0.077850185
0002a0 6b 40 41 3d 4d ae 5f 3c a5 61 d8 bc d3 67 82 be
       0.047180574 0.013652396 -0.026413748 -0.25469837
0002b0 26 cc 0f be 47 df 89 bd 70 ea e5 3a 16 c0 7a bc
       -0.1404272 -0.0673204 0.0017541181 -0.015304586
0002c0 04 54 b8 bd ce 2f 08 bd 20 35 16 3e c0 ab 3e bd
       -0.090004 -0.033248715 0.14668703 -0.046550512
0002d0 80 5d 95 bd 59 cc 22 3e f8 26 58 3d 27 ab 1e bc
       -0.07293224 0.15898265 0.05277154 -0.009684361
0002e0 6a df 1a bd 33 fc 3f 3e 1d 39 f9 bc 6e 09 ec 3d
       -0.03781072 0.1874855 -0.030422742 0.11525236
0002f0 65 b8 ba 3c f7 43 2f bb e9 94 6a 3c 6d 37 26 be
       0.022793004 -0.002674339 0.0143177295 -0.16232081
000300 81 3b 3a be f8 ff 89 3c 85 55 c7 3c ca ed c2 3d
       -0.18186761 0.016845688 0.024332771 0.09518011
000310 d0 aa 3b 3c 6d 28 9b bd 98 c3 b6 3d 28 14 8d 3d
       0.011454299 -0.0757607 0.08924025 0.0688861
000320 38 20 9b bd 73 71 42 be ad 4b bc bd 0d 29 7c 3d
       -0.075745046 -0.1898859 -0.091941215 0.061562587
000330 8b ab 24 bd a1 9f 0f 3a 0d 06 8a 3d 83 07 44 3d
       -0.04020266 0.00054788037 0.06739435 0.047858726
000340 8a 75 fa 3b 98 d4 8a 3d 13 35 6c bd 94 ea 8b be
       0.0076434063 0.0677883 -0.057667803 -0.27327406
000350 8b d4 84 bd 1f ce 92 bd 46 1f 2f 3d bb 9c db 3d
       -0.06485852 -0.07168221 0.042754434 0.10723253
000360 4e 62 30 3e 57 d3 99 bc 4b 83 24 bd f7 8a 5f 3d
       0.17225 -0.018777533 -0.040164273 0.054575887
000370 f0 53 09 bd 1e e0 dc bd 91 c4 f4 bd dd 92 b5 3d
       -0.033527315 -0.107849345 -0.119515546 0.088659026
000380 bc e1 4b bd 50 8b 0f be 09 18 82 bd 12 05 af 3d
       -0.049775824 -0.14017987 -0.063522406 0.08545889
000390 8e 5f ec bd 4f 1d 1a bd dc 38 a1 3d 86 9f 75 3d
       -0.11541663 -0.037625607 0.07872173 0.059966587
0003a0 c1 6e cc 3d 77 3e bd 3c 1e 0f 0c bd 24 8d 37 3d
       0.09982062 0.023101075 -0.034194104 0.044812337
0003b0 d9 24 af 3b cf 3c c0 3d 53 7c 93 3c 06 ca 11 bd
       0.0053449688 0.09386598 0.018003618 -0.035593055
0003c0 07 15 08 3e aa d7 c6 bb 99 f9 a3 bd 85 68 9c 3d
       0.13289271 -0.0060681896 -0.08006591 0.07637123
0003d0 c5 bb 87 3e a6 5a 9d 3c c3 0c 44 3d 7d c1 c6 bd
       0.26510444 0.019208264 0.047863733 -0.09704874
0003e0 8c f2 f6 bc 9b ac 22 3a e7 3e 04 3e e8 af d3 bd
       -0.030144952 0.000620553 0.1291462 -0.10336286
0003f0 38 a3 ff bc bc ce 3a 3e af d6 0b 3e cd 4f 6c 3d
       -0.031205758 0.18242925 0.13656114 0.05769329

fc.3.bias f4 [128]
000000 37 99 3e 3e 59 ab f1 3d 3d e4 45 bd 10 63 fb bd
       0.18613134 0.1180026 -0.048313368 -0.12274754
000010 bd ac 2d 3e 94 e1 74 3e b2 2b 2e 3d 82 58 7c 3e
       0.16960426 0.23914176 0.04252214 0.24643138
000020 2e 4f 5f 3e c7 69 0d bc 40 a3 2b 3e b8 3c 1e 3e
       0.21807548 -0.008631176 0.16761494 0.1545285
000030 fd 89 20 3c 20 19 98 3d 77 ff 0c 3e 07 5c 75 3e
       0.009798524 0.07426667 0.13769327 0.23960887
000040 83 56 e8 3d 3c a6 4c 3d 6d 89 17 3e c7 33 97 bd
       0.11344626 0.04996322 0.14798518 -0.073829226
000050 46 14 aa 3d 19 ee 0a 3e 10 e5 52 bd c6 f8 35 3e
       0.08304648 0.1356739 -0.051487982 0.17770681
000060 8b dd 16 bd 2b bf 58 3d ce 6c 05 bd 29 99 54 3e
       -0.036832374 0.052916687 -0.032574467 0.20761551
000070 71 24 34 3e 7c 6a f0 3d 02 42 24 3e f6 cb cc 3b
       0.17592026 0.1173906 0.16040805 0.0062499
000080 fb d2 94 3d 6d 3c 26 3e 73 23 11 be 01 6a 69 3e
       0.07266804 0.16233988 -0.14173679 0.22794344
000090 81 ad b1 39 f9 90 6f 3d 47 7e 51 bd 21 59 e5 bd
       0.0003388934 0.058487866 -0.051145818 -0.111986406
0000a0 02 bc 9f bd 86 8d ca bb 5b c8 98 3d b2 5a a6 3d
       -0.077995315 -0.0061814217 0.0746009 0.081227675
0000b0 bd 9c 07 3e 47 21 54 3e b1 c7 0b 3e 66 21 ab bd
       0.13243385 0.2071582 0.13650395 -0.083559796
0000c0 1a b9 a3 3d f7 3b e8 3d 9d 6d 83 3e bf 1d 93 bc
       0.0799429 0.113395624 0.25669566 -0.01795852
0000d0 aa 19 51 3e 7d 29 21 3e a8 7f 90 3d ae 28 08 be
       0.20419946 0.15738483 0.070555985 -0.13296768
0000e0 e6 62 3d 3e 54 3e 05 3e 2b 67 15 3e bf e6 0c be
       0.18494758 0.13012058 0.14590137 -0.13759898
0000f0 9c ae 10 3e d0 48 40 3e e6 b7 5b 3e 4e a3 8a bd
       0.14129108 0.18777776 0.2145687 -0.06769429
000100 a5 06 25 3e 86 99 0d 3e 98 95 61 3e 42 ac eb 3c
       0.16115816 0.13828096 0.22029722 0.028768662
000110 18 93 12 3d 61 e5 90 3e c2 b0 08 3e f0 af 40 3d
       0.03578481 0.28300002 0.13348678 0.047042787
000120 0c e4 5d 3e d0 e3 5c 3e 99 30 9a 3e 26 7b 51 3d
       0.21669024 0.21571279 0.30115202 0.051142834
000130 9e 26 76 3d 2e fb c5 3d 17 3d 52 3e be 96 45 3d
       0.060095422 0.09667049 0.20531116 0.048239462
000140 f3 04 3a 3e 4c 48 ac 3d b0 af d9 bd ed ac ba 3d
       0.1816595 0.08412227 -0.10629213 0.09115014
000150 a3 ae 17 3c 06 4f 37 3e d3 5e 63 3d ca 45 ee bd
       0.009257945 0.17901239 0.055510353 -0.11634405
000160 7f 78 8c 3e 06 ce 88 3e 92 8f 60 3e 7c 77 3e 3e
       0.2743568 0.26719683 0.21929768 0.18600267
000170 60 88 b4 3d c2 ae 00 be 9a 82 ce bd dd 68 59 3c
       0.08815074 -0.12566665 -0.10083504 0.01326963
000180 de a7 a2 3d f3 5a 9d 3d cc ed 07 bc 98 58 90 bd
       0.079421744 0.07683363 -0.008296441 -0.07048148
000190 60 a7 01 3e 09 20 21 3e e7 0a 29 3e 96 d9 39 bc
       0.12661505 0.15734877 0.16508065 -0.01134338
0001a0 e6 c1 8e 3b 34 de 55 3e 0e 9e 38 3e c7 6c 3d 3d
       0.0043566106 0.20885545 0.18029043 0.046246316
0001b0 ca c9 8d bc 25 34 1c be e6 18 9e bd 30 a1 8f bd
       -0.017308135 -0.15254267 -0.07719593 -0.07013166
0001c0 f9 cc 86 3e d3 7e 1c 3e 07 c5 d9 3c dc aa 8e 3d
       0.26328257 0.15282755 0.026583208 0.069661826
0001d0 a7 28 50 3e ee 00 70 bd d1 46 6d 3b d5 79 3d 3e
       0.20328008 -0.058594637 0.003620554 0.18503506
0001e0 1d 97 20 3e 15 9e 13 3c cf 86 f9 3d b0 96 9f bd
       0.15682645 0.009009858 0.12183916 -0.07792413
0001f0 82 9b dd 3d 90 35 8e bd b1 06 c5 3c c0 a0 14 3e
       0.108206764 -0.0694381 0.024051042 0.14514446
